cuda:0
Loaded training file
Shape of training set after removing non-numeric cols
(34387, 1322)
(19184, 1322)
Shape of training set after removing cols with NaNs
(34387, 1309)
(19184, 1309)
cuda:0
Loaded training file
Shape of training set after removing non-numeric cols
(34387, 1322)
(19184, 1322)
Shape of training set after removing cols with NaNs
(34387, 1309)
(19184, 1309)
Total parameters in model are:  3195521
Seq2Func(
  (cell_encoder): NN_Encoder(
    (dropout): Dropout(p=0.2, inplace=False)
    (relu): ReLU()
    (fcs): ModuleList(
      (0): Sequential(
        (0): Linear(in_features=1309, out_features=1024, bias=True)
        (1): ReLU()
        (2): Dropout(p=0.2, inplace=False)
        (3): BatchNorm1d(1024, eps=1e-05, momentum=0.1, affine=True, track_running_stats=True)
      )
      (1): Sequential(
        (0): Linear(in_features=1024, out_features=512, bias=True)
        (1): ReLU()
        (2): Dropout(p=0.2, inplace=False)
        (3): BatchNorm1d(512, eps=1e-05, momentum=0.1, affine=True, track_running_stats=True)
      )
      (2): Sequential(
        (0): Linear(in_features=512, out_features=256, bias=True)
        (1): ReLU()
        (2): Dropout(p=0.2, inplace=False)
        (3): BatchNorm1d(256, eps=1e-05, momentum=0.1, affine=True, track_running_stats=True)
      )
    )
  )
  (smiles_encoder): LSTM_Encoder(
    (embedding): Embedding(591, 128)
    (rnn): LSTM(128, 256, num_layers=2, dropout=0.2)
    (dropout): Dropout(p=0.2, inplace=False)
    (fc): Linear(in_features=512, out_features=256, bias=True)
  )
  (fc1): Linear(in_features=512, out_features=128, bias=True)
  (fc2): Linear(in_features=128, out_features=1, bias=True)
  (dropout): Dropout(p=0.2, inplace=False)
)
Counter Id:  0
Current Val. Loss: 42214.682 better than prev Val. Loss: inf 
Counter Id:  0
Current Val. Loss: 25985.704 better than prev Val. Loss: 42214.682 
Counter Id:  0
Current Val. Loss: 6333.966 better than prev Val. Loss: 25985.704 
Counter Id:  0
Counter Id:  0
Current Val. Loss: 5970.666 better than prev Val. Loss: 6333.966 
…
